hw3/model/LeNet5.pkl (torch_old, 251214 bytes, 10 tensors)

weight f4 [6, 1, 5, 5]
0	0xbdc3dd03	-0.09563639
1	0x3e42a294	0.19007331
2	0xbd80a184	-0.06280807
3	0xbe0f0378	-0.13966167
4	0xbe974c57	-0.2955043
5	0xbde36c88	-0.11104685
6	0x3db5d85b	0.08879157
7	0x3e8e8b7e	0.278408
8	0xbe7346d3	-0.23757486
9	0xbef87007	-0.4852297
10	0xbe7dbf0d	-0.24779911
11	0x3de2ae9e	0.11068462
12	0x3e24110e	0.16022131
13	0xbe3b7e0b	-0.183098
14	0x3ddc41f5	0.10754768
15	0xbd5d3ed9	-0.054015014
16	0x3e095568	0.13411486
17	0x3e8b23e2	0.27175814
18	0x3e8e94a9	0.27847794
19	0x3e3f2fcc	0.18670577
20	0xbddad51e	-0.1068518
21	0xbd2a4e91	-0.041578833
22	0x3e8abef8	0.27098823
23	0xbcbc4dba	-0.022986282
24	0x3e5c4e87	0.21514331
25	0xbcd9293a	-0.026508916
26	0x3e98bc61	0.29831222
27	0x3e1dc9be	0.1540899
28	0xbd22e14b	-0.039765637
29	0x3c8a49b5	0.01688085
30	0x3db71520	0.08939576
31	0x3e4ff995	0.20310052
32	0x3ea14dcf	0.31504676
33	0xbdd88628	-0.10572463
34	0xbe827871	-0.25482515
35	0x3e9b855f	0.30375192
36	0x3dbbccc8	0.09169918
37	0x3de182ae	0.11011253
38	0xbe20a545	-0.15688045
39	0xbebfe9f3	-0.37483177
40	0xbbd4ab53	-0.00649015
41	0x3ea33318	0.3187492
42	0x3db8391c	0.08995268
43	0xbe3a43bc	-0.18189901
44	0xbe9fc265	-0.31203
45	0x3e3079c8	0.17233956
46	0x3ded8396	0.11597364
47	0xbdd5d8d4	-0.10441747
48	0xbdefc07d	-0.11706636
49	0xbe81a9b3	-0.25324783
50	0x3cabfa7d	0.020993466
51	0x3e41a619	0.18911017
52	0xbdd89a5d	-0.105763175
53	0x3d8153f4	0.06314841
54	0xbd00bc1c	-0.031429395
55	0x3e1f7592	0.15572193
56	0xbda0496c	-0.07826504
57	0xbec2f99b	-0.3808106
58	0xbeed4cfd	-0.463478
59	0xbe939026	-0.28820914
60	0xbd7b0b55	-0.061290104
61	0xbf25f076	-0.6482004
62	0xbf054908	-0.5206456
63	0xbe4f964c	-0.20272177
64	0x3e374b80	0.17899895
65	0xbf266cb0	-0.65009594
66	0xbef1c83a	-0.47223073
67	0xbcc6da2e	-0.024273958
68	0xba45a4ad	-0.0007539492
69	0x3ebf2d6f	0.3733935
70	0xbeed7e91	-0.46385625
71	0xbe771830	-0.2413032
72	0x3ceb99a3	0.028759783
73	0x3ef114d1	0.47086194
74	0x3edea8ff	0.4348831
75	0xbe6fb70c	-0.2340967
76	0xbdbd0b9d	-0.09230731
77	0xbcb01cbc	-0.021498077
78	0x3c0dbe14	0.008651275
79	0x3dc5d443	0.09659626
80	0xbeb36249	-0.35035923
81	0xbe37959f	-0.1792817
82	0x3df3616f	0.11883818
83	0x3e5b8dc8	0.21440804
84	0x3e77c09b	0.24194567
85	0xbe8d51e5	-0.27601543
86	0xbe3fb544	-0.18721491
87	0x3dbdfdf6	0.09276955
88	0x3e361873	0.17782764
89	0xbdaed57b	-0.08536812
90	0xb91f1de4	-0.00015174557
91	0x3b284606	0.0025676503
92	0x3e57a70d	0.21059819
93	0x3e24512d	0.16046591
94	0xbca81b3d	-0.0205208
95	0xbc83afca	-0.016075034
96	0x3e6cf82c	0.23141545
97	0x3e3bb0a3	0.183291
98	0xbd5e6e1e	-0.054304235
99	0xbe2e9088	-0.17047322
100	0xbd912dde	-0.070888266
101	0xbe81f5c4	-0.25382817
102	0x3b9fa555	0.004872004
103	0xbdbb35cb	-0.091411196
104	0xbe9d7003	-0.3074952
105	0x3e612d78	0.21990001
106	0x3e98290c	0.29718816
107	0x3e9294aa	0.28629047
108	0x3eaa3234	0.33241427
109	0x3d95a472	0.07306756
110	0x3e322290	0.17395997
111	0x3df2ff11	0.11865056
112	0x3e0b4020	0.1359868
113	0x3eac462e	0.33647293
114	0x3d28dde1	0.041227225
115	0x3c8c0a96	0.017094892
116	0xbe44dac1	-0.19224073
117	0xbe48e047	-0.19616805
118	0xbe0f8327	-0.14014874
119	0x3e3b2906	0.18277368
120	0xbdad721f	-0.084690325
121	0xbe05e162	-0.13074258
122	0xbe8d0792	-0.27544838
123	0xbb80f6e2	-0.0039356807
124	0xbd5fb9f4	-0.054620698
125	0x3e447a5b	0.191873
126	0x3d942fca	0.072356775
127	0x3e13b83d	0.1442575
128	0x3ea9605e	0.33081335
129	0x3e5e410c	0.21704501
130	0x3e20617a	0.15662184
131	0x3e79156b	0.24324577
132	0x3eac45eb	0.33647093
133	0x3d90de15	0.07073609
134	0x3e13e273	0.14441852
135	0x3e515a7b	0.20444672
136	0x3e4a8c56	0.19780096
137	0x3d6dc118	0.058045477
138	0x3e33807f	0.17529486
139	0x3dabb011	0.083831914
140	0xbed3757b	-0.41300568
141	0xbec5681b	-0.3855599
142	0xbec5e3ba	-0.38650304
143	0xbebbf96f	-0.3671374
144	0x3e0a535c	0.13508362
145	0xbeb6ca9c	-0.35701454
146	0xbee05f5d	-0.43822756
147	0xbeb83b84	-0.35982907
148	0xbc288728	-0.01028613
149	0xbe388e65	-0.18023069

bias f4 [6]
0	0xbd0be0e9	-0.034150038
1	0xbdf91796	-0.12162702
2	0x3dbf5622	0.093426004
3	0xbde241ae	-0.11047684
4	0xbcc00dfe	-0.023444172
5	0x3ddd872e	0.10816799

weight f4 [16, 6, 5, 5]
0	0xbce27cc8	-0.027647391
1	0xbd088077	-0.03332564
2	0x3dc7e267	0.0975998
3	0xbc3505db	-0.011048759
4	0xbdead3ad	-0.11466155
5	0x3d9c2d7a	0.076258615
6	0x3dda660a	0.10663994
7	0x3e59f5e4	0.21285206
8	0x3e38c77c	0.18044847
9	0x3da3b43a	0.0799336
10	0x3d01ef1f	0.031722184
11	0x3d0358d7	0.032067146
12	0x3e0289cd	0.1274788
13	0x3c843f23	0.016143387
14	0xbd5021f0	-0.050813615
15	0xbd6cc0f7	-0.057801213
16	0xbd2cb41a	-0.042163946
17	0xbcf30d06	-0.029669296
18	0xbe41588f	-0.18881439
19	0xbe3a08d0	-0.18167424
20	0xbcc7bf83	-0.024383312
21	0x3d979891	0.074021466
22	0xbcc76ff4	-0.024345376
23	0xbe89bfc2	-0.26904112
24	0xbe8d82ed	-0.2763895
25	0x3e37d2e0	0.17951536
26	0xbdb6be3c	-0.08923003
27	0xbced644f	-0.028978495
28	0xbd2d7e3f	-0.042356726
29	0xbd94a3b2	-0.07257785
30	0xbd858b58	-0.06520718
31	0xbda68809	-0.081314154
32	0x3db48694	0.08814731
33	0xbbb9a0db	-0.0056649274
34	0xbd8d2262	-0.068913236
35	0xbe51cb83	-0.2048779
36	0x3c1ca88e	0.009561671
37	0xbc438ac2	-0.011934938
38	0x38cf79d6	9.893223e-05
39	0xbdc98738	-0.09840244
40	0x3d5934cb	0.053028863
41	0x3cc4fc52	0.024046097
42	0x3c88a1d4	0.016678728
43	0xbe161466	-0.14656219
44	0xbe6bd03e	-0.23028657
45	0x3dee2950	0.116289735
46	0x3d811b5e	0.06304048
47	0xbd2a60e6	-0.041596316
48	0xbe3a8437	-0.18214498
49	0xbe6f3b94	-0.23362571
50	0xbdff8b8b	-0.124777876
51	0x3dce353d	0.10068748
52	0x3e0a81e2	0.13526109
53	0xbe4d9769	-0.2007729
54	0xbe0f2b66	-0.13981399
55	0xbdf5ac46	-0.11995749
56	0x3d2f3b0a	0.042780913
57	0xbdf49a0c	-0.119434446
58	0xbbfc72fd	-0.0077041374
59	0xbd9ad3bc	-0.075599164
60	0x3cae786f	0.021297662
61	0xbc65e3a4	-0.014031325
62	0xbdf8036a	-0.12110026
63	0xbdd0e57d	-0.102000214
64	0xbe3d59e7	-0.18491326
65	0x3dd18f6f	0.10232436
66	0x3c8050fc	0.015663616
67	0x3d963aae	0.07335411
68	0xbd2af4ac	-0.041737244
69	0xbe2cb2d7	-0.16865097
70	0xbd58e447	-0.052952077
71	0xbdc2dfec	-0.09515366
72	0xbd774d98	-0.060376734
73	0xbe03950c	-0.12849826
74	0xbe11671f	-0.14199494
75	0x3c8a50d2	0.016884241
76	0x3d1955e9	0.037435446
77	0x3d924f35	0.07144014
78	0xbda4253f	-0.08014917
79	0xbda0f4eb	-0.078592144
80	0xbd8ceb50	-0.0688082
81	0x3da6a5c2	0.081370845
82	0x3e09f38a	0.13471809
83	0x3aee59e4	0.0018184748
84	0x3d788494	0.06067331
85	0xbc8ffaaf	-0.01757559
86	0x3e33c1f6	0.17554459
87	0x3dec25d5	0.115306534
88	0xbe00b993	-0.12570791
89	0xbd548a8a	-0.051889934
90	0xbd1df9fe	-0.03856849
91	0xbd7535e6	-0.059865855
92	0xbe3e65d4	-0.18593532
93	0xbe440604	-0.1914292
94	0xbe5dc752	-0.21658066
95	0x3d89e17e	0.06732462
96	0xbdbf7df9	-0.09350199
97	0xbe714fcf	-0.23565601
98	0xbe6e589e	-0.23275992
99	0xbe0a9eb6	-0.13537106
100	0xbce99524	-0.028513499
101	0xbcafd92f	-0.021465866
102	0xbe48dcb7	-0.19615446
103	0x3d7e8273	0.062136125
104	0xbc37de7f	-0.011222481
105	0xbadff1c7	-0.0017085605
106	0xbca91201	-0.020638468
107	0x3d09dba6	0.03365674
108	0xbd46546e	-0.048420362
109	0xbd7229c4	-0.059121862
110	0x3d0ef51f	0.034901734
111	0x3e264dd6	0.1624063
112	0x3e61d39e	0.22053382
113	0x3e59df17	0.21276508
114	0x3e04721e	0.12934157
115	0x3cd5d77a	0.026103724
116	0x3d35acf1	0.044354383
117	0x3dada4ad	0.08478675
118	0x3c00680e	0.007837309
119	0x3daa810b	0.08325394
120	0xbdf39f47	-0.11895614
121	0xbe233f4e	-0.15942118
122	0xbe5ae921	-0.21377994
123	0xbe3f1d51	-0.18663527
124	0xbec88bbc	-0.3916911
125	0xbe02d795	-0.1277755
126	0xbda273af	-0.07932221
127	0xbe6aa043	-0.22912697
128	0xbdc6a986	-0.09700303
129	0x3bb99a09	0.0056641144
130	0xbe0dc42b	-0.13844363
131	0xbe4cff93	-0.20019369
132	0xbd4bc938	-0.049752444
133	0xbe04cc3b	-0.12968533
134	0xbd77387d	-0.060356606
135	0x3ddf8646	0.109142825
136	0x3d80f87a	0.06297393
137	0x3e4a4f0b	0.19756715
138	0x3e246fd6	0.16058287
139	0x3e2511a6	0.16120014
140	0x3d919ccc	0.07109985
141	0x3d6ec03c	0.058288798
142	0x3cefd7d0	0.029277712
143	0x3e087cef	0.13328908
144	0x3d8fd652	0.070233
145	0xbe0f549b	-0.13997118
146	0xbe05db27	-0.13071881
147	0xbe003cf9	-0.12523259
148	0xbe5ccc12	-0.21562222
149	0xbe567bbe	-0.20945641
150	0x3d379b45	0.04482581
151	0xbc7a625c	-0.01528224
152	0xbc815a0c	-0.015790008
153	0xbcd07e0d	-0.02545073
154	0xbda9a2f4	-0.08283034
155	0x3e3a2121	0.181767
156	0x3e5425b9	0.20717515
157	0x3db8aeee	0.0901774
158	0x3d8bbfe6	0.06823711
159	0x3debb2fb	0.11508747
160	0x3ab1082c	0.0013506464
161	0xbdcdfb14	-0.10057655
162	0xbe0a7eef	-0.13524984
163	0x3dae2be7	0.085044675
164	0x3e2efa34	0.17087632
165	0x3bb54b71	0.005532675
166	0xbd7cee90	-0.06175095
167	0xbd1a5475	-0.0376782
168	0x3cd009ae	0.02539524
169	0xbd675b62	-0.056483634
170	0xbe4267ec	-0.18984956
171	0xbe2bd63e	-0.16780946
172	0xbe152017	-0.14563023
173	0xbdd67fdb	-0.10473605
174	0x3cc72b8a	0.024312753
175	0x3de34eb5	0.110989965
176	0x3c69e4c8	0.014275737
177	0xbd8469c8	-0.06465489
178	0xbd7f8f6d	-0.06239264
179	0xbe62e5db	-0.22157995
180	0xbd867746	-0.06565718
181	0xbd72015b	-0.059083324
182	0xbdc9b06e	-0.098481044
183	0xbd465185	-0.048417587
184	0xbd89ce32	-0.06728782
185	0xbdc9377a	-0.098250344
186	0xbad02459	-0.0015879973
187	0xbe6997f8	-0.22811878
188	0xbe1e6a63	-0.15470271
189	0x3c530be8	0.012881257
190	0xbd17ccbb	-0.03706048
191	0xbe01c73b	-0.12673657
192	0xbeaa40c3	-0.33252534
193	0x3d5af48b	0.05345587
194	0x3c25e4ca	0.010125348
195	0x3dcacda2	0.099025026
196	0xbde31a24	-0.1108897
197	0x3ba29436	0.004961516
198	0x3c9b9003	0.018989569
199	0x3bf0cb67	0.007348466
200	0x3d95a5a4	0.07306984
201	0x3e6a4223	0.22876792
202	0x3da90440	0.08252764
203	0xbd07a085	-0.033112068
204	0xbc4c0aca	-0.012453744
205	0x3e1fff5b	0.15624754
206	0x3cf8500a	0.030311603
207	0xbe960155	-0.2929789
208	0xbe9e9409	-0.30972317
209	0xbdfafca4	-0.122552186
210	0xbc88d585	-0.016703377
211	0xbe7f9460	-0.24958944
212	0xbde11610	-0.10990536
213	0xbde9ca8b	-0.11415585
214	0xbd289bbf	-0.041164156
215	0xbcc5bec8	-0.024138823
216	0x3e3222e7	0.17396127
217	0x3e947df4	0.29002345
218	0x3dc8792a	0.09788735
219	0xbd9bb445	-0.07602743
220	0x3d652851	0.05594665
221	0x3df76656	0.12080066
222	0x3d8a88d7	0.067643814
223	0x3ccde50d	0.025133634
224	0x3d327806	0.043571495
225	0xbde77af7	-0.113027506
226	0x3ce154a7	0.027506186
227	0xbc69c6f1	-0.014268623
228	0xbd4d4fc9	-0.050124917
229	0x3d9d073a	0.07667394
230	0xbd93c430	-0.07215154
231	0xbd8d067d	-0.06886003
232	0xbe205979	-0.15659131
233	0xbdd008b3	-0.10157909
234	0x3d9f3d92	0.077754155
235	0xbd5dd68d	-0.05415969
236	0xbde7afb5	-0.1131281
237	0xbe1d0c8b	-0.15336816
238	0xbc575fe9	-0.013145425
239	0x3e479489	0.19490255
240	0xbd210a2f	-0.039316352
241	0xbe613180	-0.21991539
242	0x3c9528a5	0.018207857
243	0x3e282471	0.16420151
244	0x3bb09318	0.0053886287
245	0xbde374eb	-0.11106285
246	0xbd2e490b	-0.042550128
247	0x3e2653bc	0.1624288
248	0x3c9d6ea2	0.019217793
249	0xbe24a681	-0.16079141
250	0xbcf99b1e	-0.030469473
251	0xbdf57f9b	-0.119872294
252	0xbe2148ef	-0.15750478
253	0xbea4472a	-0.32085544
254	0xbe41fc61	-0.18943931
255	0x3e31b41f	0.17353867

bias f4 [16]
0	0x3d566328	0.052340657
1	0x3d2d15a8	0.04225698
2	0x3d9bd84f	0.07609617
3	0xbbcd917d	-0.006273447
4	0xbd46be79	-0.048521493
5	0x3c82c79f	0.015964327
6	0xbd061ae3	-0.032740485
7	0x3cddd4a6	0.027078938
8	0xbc684d30	-0.014178559
9	0x3cee4071	0.029083462
10	0x3b937de0	0.0045010895
11	0xbce7a76a	-0.028278071
12	0xbc8763da	-0.016527105
13	0x3ca9f7f1	0.02074811
14	0xbccbee81	-0.024894001
15	0xbdf9efcc	-0.12203941

weight f4 [120, 400]
0	0xbd535c0e	-0.051601462
1	0xbd8cab4c	-0.0686861
2	0xbe18df4d	-0.14928932
3	0xbe23a07d	-0.1597919
4	0xbc20c639	-0.009812885
5	0x3e06ce4e	0.13164636
6	0x3df1b11d	0.1180136
7	0x3e055e1b	0.1302418
8	0xbd22e11f	-0.039765473
9	0xbda260ce	-0.0792862
10	0x3d91ea19	0.07124729
11	0xbd9035ec	-0.07041535
12	0x3d6dcc15	0.058055956
13	0xbd868c77	-0.0656976
14	0x3d452bae	0.04813736
15	0x3be40b7b	0.0069593764
16	0xbdd3aaad	-0.10335288
17	0xbe0dba32	-0.13840559
18	0xbdfdfb63	-0.12401464
19	0x3d3150d1	0.043289963
20	0xbe7de20e	-0.24793264
21	0xbdf8edf7	-0.12154763
22	0xbdd44d5c	-0.10366318
23	0xbe0a7d1e	-0.13524291
24	0xbdda429e	-0.106572375
25	0xbcdc8f9c	-0.026923947
26	0xbe6fde42	-0.23424628
27	0xbdceeecb	-0.1010414
28	0x3caa92c6	0.02082194
29	0x3c3a8635	0.0113845365
30	0xbc1178f4	-0.008878935
31	0xbd6c81a2	-0.057740815
32	0xbce77499	-0.02825384
33	0x3d4be287	0.04977658
34	0x3dba0b77	0.09084218
35	0x3deefd3c	0.116693944
36	0x3dc0e9b1	0.09419573
37	0x3d616c04	0.055034652
38	0x3e507bfc	0.20359796
39	0xbd7a9a2e	-0.061182193
40	0x3b1038b9	0.0022006466
41	0xbe297dde	-0.16551921
42	0xbde737c9	-0.11289937
43	0xbe3c7994	-0.18405753
44	0x3bbd3cdb	0.005775077
45	0xbdbd591a	-0.092455104
46	0xbe5f5c80	-0.2181263
47	0xbe0f02cd	-0.13965912
48	0xbe1538d2	-0.14572456
49	0xbdda9139	-0.1067223
50	0x3b0edff9	0.0021800979
51	0xbc196ce8	-0.009364344
52	0xbc6c59f9	-0.014425748
53	0xbc1ac6cf	-0.009446814
54	0xbd27a39c	-0.040927514
55	0x3db7e708	0.089796126
56	0x3d608fe4	0.054824725
57	0x3cfc1274	0.030770518
58	0x3da8e7ef	0.08247363
59	0xbdc95624	-0.09830883
60	0xbe0452ef	-0.12922262
61	0xbd6ea06a	-0.05825845
62	0xbda43da6	-0.08019571
63	0xbd395f35	-0.045256812
64	0x3df2fcb0	0.118646026
65	0xbe18b88a	-0.14914146
66	0xbe1d5c7e	-0.15367314
67	0xbd775905	-0.06038763
68	0xbdc2f71a	-0.09519787
69	0xbd2d549a	-0.04231701
70	0xbd7242ca	-0.059145726
71	0xbd1f260e	-0.03885465
72	0x3d906f68	0.07052499
73	0xbd647649	-0.055776868
74	0x3e07e754	0.13271838
75	0xbdb9b05e	-0.090668425
76	0xbe1bd642	-0.15218452
77	0x3cb1565e	0.021647628
78	0x3d7e875a	0.0621408
79	0x3d5fb81e	0.054618947
80	0xbdd50804	-0.104019195
81	0xbc715289	-0.014729151
82	0x3d90e4a2	0.07074858
83	0x3bca57b9	0.006175008
84	0x3d4a31d1	0.049363915
85	0xbd27db19	-0.040980432
86	0xbd5fef3d	-0.054671515
87	0x3c566313	0.013085145
88	0x3d8f097a	0.069842294
89	0xbaee1f0c	-0.0018167212
90	0xbd9c6786	-0.07636933
91	0xbe2c5086	-0.16827592
92	0xbdc0e57b	-0.0941877
93	0x3c786026	0.015159642
94	0xbdd13a22	-0.10216166
95	0xbdb16a53	-0.08662858
96	0xbda9da79	-0.082936235
97	0x3dc06348	0.093939364
98	0x3bf0db44	0.0073503572
99	0xbdb06681	-0.08613301
100	0x3c6d10fb	0.0144693805
101	0xbd85b504	-0.065286666
102	0x3da2876b	0.07935985
103	0x3d640f15	0.055678446
104	0xbd885d1e	-0.06658386
105	0xbd008cb2	-0.031384178
106	0xbd924a03	-0.07143023
107	0xbd404050	-0.046936333
108	0xbddedefa	-0.10882373
109	0xbd43e5b6	-0.04782649
110	0xbd812a47	-0.06306892
111	0x3dc94351	0.09827293
112	0x3ddfea98	0.10933417
113	0xbc50fcd3	-0.0127555905
114	0x3ce89d9c	0.028395467
115	0x3dbdb4a3	0.09262969
116	0x3c5152f1	0.012776122
117	0xbd20565f	-0.03914487
118	0xbd911b10	-0.0708524
119	0x3d6e6800	0.05820465
120	0xbdb934de	-0.09043287
121	0xbd02695b	-0.031838756
122	0x3d50746e	0.050892286
123	0xbccf436b	-0.025300702
124	0x3d98bcff	0.07457923
125	0xbe4acef4	-0.19805509
126	0xbe47f40a	-0.19526687
127	0xbdbe2ee5	-0.09286288
128	0xbc580e91	-0.013187067
129	0xbdbbe036	-0.09173624
130	0xbd9ddfd2	-0.07708706
131	0xbde84bfc	-0.11342618
132	0xbd9f57cd	-0.077804185
133	0x3d8f7aee	0.07005869
134	0xbd1b5248	-0.037920266
135	0xbd8b2858	-0.06794804
136	0xbd746c71	-0.05967373
137	0x3e1502f1	0.14551903
138	0xbc0438ab	-0.008070151
139	0x3c8f898e	0.017521646
140	0x3df35650	0.11881697
141	0x3d79e5aa	0.06101004
142	0xbc03dce2	-0.008048268
143	0x3d836dbe	0.06417416
144	0x3d567949	0.05236176
145	0x3dd3cc1f	0.103416674
146	0xbcc8675b	-0.024463346
147	0xbcc660a2	-0.024216
148	0x3dc52a8a	0.09627254
149	0xbcc9934a	-0.024606366
150	0x3dc07395	0.093970455
151	0x3cffe0c8	0.031235114
152	0x3cad64c8	0.02116622
153	0x3c8225a9	0.015887098
154	0xba368e51	-0.0006963956
155	0x3e38715f	0.18011998
156	0x3d6067db	0.054786544
157	0x3dd1eac7	0.10249858
158	0x3dd428b6	0.103593275
159	0x3d3be7df	0.045875426
160	0xbe1778ec	-0.14792222
161	0xbd7cfa5f	-0.06176221
162	0xbdb91e7b	-0.09039017
163	0xbe0c0333	-0.13673095
164	0xbdc3ad9f	-0.095546
165	0xbd0d78c6	-0.034539007
166	0xbe01ebe3	-0.1268764
167	0xbda418a1	-0.0801251
168	0xbe3945ff	-0.18093108
169	0xbe216f1c	-0.15765041
170	0xbdc88d3d	-0.09792564
171	0xbe5e035e	-0.21680972
172	0xbe289d71	-0.16466309
173	0xbe11eda6	-0.14250812
174	0x3ccc1a94	0.024915017
175	0x3d9cf767	0.07664376
176	0x3dc34474	0.09534541
177	0x3d6a39ed	0.05718415
178	0xbd5719ca	-0.05251483
179	0x3da5b487	0.080910735
180	0x3c3bab78	0.011454456
181	0xbd28402d	-0.041076828
182	0x3ddefb5d	0.108877875
183	0xbcc892ec	-0.02448412
184	0x3ce94324	0.028474398
185	0x3ce8a2c1	0.02839792
186	0xbc17057d	-0.009217617
187	0xbd66e2ee	-0.05636876
188	0xbd7738b1	-0.0603568
189	0x3b57cfc5	0.0032930237
190	0xbe3da479	-0.18519773
191	0xbd8df91c	-0.069322795
192	0xbdae1efc	-0.085020036
193	0xbe188d46	-0.14897642
194	0xbda65d06	-0.081232116
195	0xbd20b07f	-0.03923082
196	0xbe22415d	-0.15845247
197	0x3cb2ead9	0.0218405
198	0xbb49de0f	-0.0030802523
199	0x3d0590fd	0.032608975
200	0x3d011d59	0.03152213
201	0x3cd141a4	0.025543995
202	0xbd7f5f3d	-0.062346686
203	0x3cacaa2d	0.02107724
204	0xbe039d58	-0.1285299
205	0x3d12755d	0.035756458
206	0x3d9a77bd	0.075423695
207	0x3d0f53d2	0.034992047
208	0x3d1c0205	0.038087863
209	0x3c73d258	0.014881693
210	0x3c129079	0.008945578
211	0xbc68c636	-0.014207413
212	0xbd49be57	-0.049253788
213	0x3d48d372	0.049029775
214	0x3e09c37c	0.13453478
215	0xbd30bcc2	-0.043148763
216	0xbe700ced	-0.23442431
217	0x3dbd5c28	0.09246093
218	0xbc9a6843	-0.018848544
219	0x3d8953d3	0.06705441
220	0x3cd3c665	0.025851438
221	0x3d56f2f0	0.052477777
222	0x3c956360	0.018235862
223	0xbd93d6d3	-0.07218709
224	0x3d495c3d	0.04916023
225	0xbb272970	-0.0025506876
226	0xbd8ff3c8	-0.070289195
227	0xbd66979c	-0.05629693
228	0xbe183603	-0.14864354
229	0xbdb2173b	-0.08695837
230	0x3dd44603	0.10364916
231	0x3db9ff4c	0.09081897
232	0x3e036459	0.12831248
233	0x3c668a13	0.014071005
234	0x3d272230	0.040804088
235	0xbdc5e07f	-0.0966196
236	0xbddd4a59	-0.10805196
237	0xbe197e2c	-0.14989537
238	0xbd9f21c0	-0.07770109
239	0x3c838974	0.016056754
240	0xbe1ca443	-0.15297036
241	0xbe0ad9a3	-0.13559584
242	0xbd14eb7d	-0.03635739
243	0xbdd5dad2	-0.10442127
244	0xbdd9df2b	-0.10638269
245	0xbd36783d	-0.044548262
246	0xbdcc71d6	-0.0998265
247	0x3c47b734	0.012189675
248	0xbd66e09c	-0.056366548
249	0xbd896b7e	-0.06709956
250	0xbdca1abe	-0.09868382
251	0xbe0b2e70	-0.13591933
252	0xbea0a68a	-0.3137706
253	0xbe566de8	-0.20940363
254	0xbddeb1d4	-0.10873762
255	0xbdc9358f	-0.098246686

bias f4 [120]
0	0x3d13e7ad	0.036109615
1	0xbc6acd03	-0.014331105
2	0xbd5a9f56	-0.05337461
3	0xbd0ae150	-0.03390628
4	0xbcae33ac	-0.021264873
5	0xbcdee60d	-0.027209306
6	0x3d78ab57	0.060710277
7	0x3c3f5802	0.011678698
8	0xbc9ce078	-0.019150004
9	0x3d21a900	0.03946781
10	0xbd8c9e19	-0.06866092
11	0xbc839f5f	-0.016067205
12	0xbd288a4e	-0.041147523
13	0xbd0811df	-0.03322017
14	0xbd6acba6	-0.05732312
15	0x3c386960	0.011255592
16	0x3c0b4429	0.008500137
17	0x3d0ee758	0.034888595
18	0xbc31ea8b	-0.010859142
19	0x3b6a0a86	0.003571184
20	0xbd8fb534	-0.07016984
21	0x3d880ed6	0.06643455
22	0xbb7c9bf9	-0.0038545115
23	0x3d916989	0.07100207
24	0x3db32526	0.0874732
25	0xbd20c426	-0.03924956
26	0xbd259765	-0.040427584
27	0xbd3ff52a	-0.046864666
28	0xbcd9a49d	-0.026567752
29	0x3d370831	0.044685546
30	0x3ca3cfdf	0.019996582
31	0xbd515f5d	-0.051116336
32	0x3ad26487	0.0016051688
33	0x3d4a6ed6	0.049422108
34	0x3d12e7f0	0.035865724
35	0x3d37d421	0.044880036
36	0xbd03d983	-0.032189857
37	0x3da03f03	0.078245185
38	0xbcd238be	-0.025661822
39	0xbd0922fd	-0.033480633
40	0xbd69d3a6	-0.05708661
41	0xbce0849e	-0.027406987
42	0xbd813c08	-0.06310278
43	0x3d376b0b	0.04477982
44	0xbd0ee153	-0.034882855
45	0xbaf5ddf4	-0.0018758164
46	0x3a0d2fee	0.0005385865
47	0x3c987094	0.018608369
48	0x3d036a3d	0.03208374
49	0xbc6ac14a	-0.01432831
50	0x3d81c592	0.06336512
51	0x3dae057c	0.0849714
52	0xbc24e04b	-0.010063241
53	0xbcee3e41	-0.02908242
54	0x3d2602a6	0.04052987
55	0xbd7c6b4c	-0.061625764
56	0x3c154180	0.009109855
57	0xbd4d9b49	-0.05019692
58	0xbd237da1	-0.03991473
59	0xbd2baf59	-0.04191527
60	0x3ace2894	0.0015728646
61	0x3bc1d901	0.0059157615
62	0xbd1ffcff	-0.039059635
63	0x3c6c92c1	0.014439286
64	0x3d476e86	0.048689388
65	0xbb6eee16	-0.0036457828
66	0xbd1e447f	-0.03863954
67	0xbd269ff0	-0.040679872
68	0xbcc0200b	-0.02345278
69	0xbda1aaa3	-0.078938745
70	0x3d9677ce	0.0734707
71	0x3d1a0dcd	0.037610818
72	0x3d27f8c3	0.041008722
73	0x3d02cc2d	0.031933
74	0xbd38ff60	-0.04516542
75	0x3d0c0037	0.034179892
76	0xb968fca5	-0.00022219362
77	0x3c9d33dc	0.019189768
78	0xbd314ee3	-0.043288123
79	0xbb6329f6	-0.0034662462
80	0xbcbba2c1	-0.022904756
81	0xbc218dbf	-0.009860455
82	0x3b164e61	0.00229349
83	0xbd1a07ed	-0.037605215
84	0x3d8b897c	0.068133324
85	0x3c331e6c	0.010932546
86	0xbd3c88e3	-0.046028983
87	0xbc704b7d	-0.014666435
88	0x39a88e65	0.0003214955
89	0xbccac1ca	-0.024750609
90	0x3d39f50d	0.045399714
91	0xbd0044a4	-0.03131546
92	0xbce2e563	-0.02769727
93	0x3bd6e366	0.0065578697
94	0x3cd201a5	0.02563555
95	0xbbf4a796	-0.007466267
96	0xbcdc6923	-0.026905602
97	0x3ce559c8	0.027996913
98	0xbd76a782	-0.06021834
99	0xbd192889	-0.037392173
100	0xbd0a9a18	-0.03383836
101	0x3b0b560d	0.0021261007
102	0x3d34508c	0.044022128
103	0xbd821306	-0.06351285
104	0xbd7552ab	-0.05989329
105	0x3c897a7a	0.016782034
106	0x3c5c9801	0.013463975
107	0x3d036c69	0.03208581
108	0x3d0deb3e	0.034648173
109	0x3c79d75f	0.015249102
110	0x3d3f168a	0.046652354
111	0x3cca5a43	0.024701243
112	0x3c0c12c2	0.008549394
113	0xbd465550	-0.048421204
114	0x3c02b4d3	0.007977682
115	0xbccfc118	-0.025360629
116	0xbca25127	-0.019814087
117	0x3c96e5ec	0.018420182
118	0x3d3e0c3f	0.046398398
119	0x3d28e9a4	0.041238442

weight f4 [84, 120]
0	0xbe38e239	-0.18055047
1	0x3e0876ef	0.1332662
2	0x3db9c939	0.09071583
3	0x3d234874	0.03986402
4	0x3d5c33e8	0.05376044
5	0xbaedbd4f	-0.0018138083
6	0x3e02aee9	0.12762035
7	0xbdc4d304	-0.096105605
8	0xbe9a9cad	-0.3019766
9	0xbd694b21	-0.056956414
10	0xbcc2cf6f	-0.023780553
11	0xbdce1832	-0.10063209
12	0x3ddc45bc	0.10755488
13	0xbdcc0af1	-0.099630244
14	0x3dd9c646	0.10633521
15	0x3cfd25c5	0.030901799
16	0x3d1618a5	0.036644597
17	0x3d5aa88f	0.053383406
18	0x3d25bab5	0.04046126
19	0xbe1e29cc	-0.15445632
20	0x3e663531	0.22481228
21	0x3d932633	0.0718502
22	0xbbd76090	-0.0065727904
23	0xbb9e8b56	-0.0048383875
24	0xbe1cf629	-0.15328278
25	0x3d85a88a	0.06526287
26	0xbc6ccc6d	-0.014453036
27	0xbbada31f	-0.0052989866
28	0xbd3d2c5d	-0.046184886
29	0x3da7e0d2	0.08197178
30	0xbd323d4b	-0.043515485
31	0x3e23323f	0.15937136
32	0xbe06dc3d	-0.13169952
33	0xbcde3bd8	-0.027128145
34	0x3dbb6aae	0.09151207
35	0x3d94e592	0.072703496
36	0x3d803790	0.06260598
37	0x3b915f71	0.0044364263
38	0x3df7107d	0.12063692
39	0xbc800c6c	-0.015630923
40	0x3c4eebcd	0.0126294615
41	0xbdccbf3e	-0.09997414
42	0x3e33f90f	0.17575477
43	0x3d9a993c	0.075487584
44	0x3d291583	0.04128028
45	0xbdf89211	-0.12137235
46	0x3e4d93ad	0.20075865
47	0xbd64d115	-0.05586346
48	0x3eb90410	0.36135912
49	0xbdf49afd	-0.11943624
50	0x3e25ef61	0.16204597
51	0xbdf621b1	-0.12018145
52	0xbd1609f0	-0.03663057
53	0x3cdbae0a	0.026816387
54	0xbea6426c	-0.3247255
55	0x3e06c5fc	0.13161463
56	0x3d765af9	0.060145352
57	0x3d4de97b	0.050271492
58	0xbd200efd	-0.039076794
59	0x3dce84cd	0.100839235
60	0x3dca6319	0.09882183
61	0xbc5cd31c	-0.013478067
62	0x3dbc8cad	0.09206519
63	0x3da4f3fa	0.08054347
64	0x3dd59ba4	0.10430077
65	0x3e1b761f	0.15181778
66	0x3c9cf927	0.019161774
67	0x3da0bc25	0.07848386
68	0x398938f2	0.00026173104
69	0x3dbce654	0.09223619
70	0xbe58cc54	-0.21171695
71	0xbe790393	-0.2431777
72	0x3cd1b00d	0.025596643
73	0x3e14b95f	0.14523838
74	0xbc4504e5	-0.012025093
75	0x3cb74dff	0.022376059
76	0x3d8b953f	0.06815576
77	0x3d061e5f	0.032743808
78	0x3d639ec3	0.05557133
79	0x3d172e2e	0.036909275
80	0x3ed73ee3	0.42040166
81	0xbcab5cba	-0.020918239
82	0xbc6a0269	-0.014282801
83	0x3d7f1597	0.06227645
84	0xbbb8dcdb	-0.0056415624
85	0x3c642f3b	0.013927276
86	0x3cf62def	0.0300512
87	0x3c52b390	0.012860194
88	0x3d572c0b	0.052532237
89	0x3db1dd3c	0.08684775
90	0xbe0fe7e5	-0.14053304
91	0x3dce45fa	0.10071941
92	0xbd575ac6	-0.052576803
93	0xbd79d119	-0.060990427
94	0x3db9cabe	0.09071873
95	0x3da5d001	0.08096314
96	0x3d6a5fd9	0.057220314
97	0xbd85b9d4	-0.065295845
98	0x3ca5c82d	0.020237053
99	0xbd7a125d	-0.06105267
100	0x3d3739cf	0.044732865
101	0xbe3d4365	-0.1848274
102	0x3e3229af	0.17398714
103	0x3d7110b4	0.05885382
104	0x3dbf5e84	0.09344199
105	0x3d8acce4	0.06777361
106	0xbd94779f	-0.072493784
107	0x3d31c6eb	0.043402594
108	0xbc9cfc0a	-0.01916315
109	0x3bd1e2b6	0.0064052
110	0x3d44212f	0.04788321
111	0xbde6d137	-0.11270373
112	0xbd015678	-0.031576604
113	0xbd670103	-0.05639745
114	0x3d6f4503	0.058415424
115	0xbe3050f7	-0.17218386
116	0xbe0e1bd6	-0.13877806
117	0x3c1eee91	0.009700433
118	0x3e7171ef	0.23578618
119	0x3d25b34d	0.040454198
120	0xbd85ec1d	-0.06539176
121	0xbe5c74e6	-0.21528968
122	0xbd24033d	-0.04004215
123	0xb9dc9ca4	-0.00042078376
124	0xbd278278	-0.04089591
125	0x3ce38381	0.027772667
126	0x3d1767ae	0.03696411
127	0xbdea2247	-0.11432319
128	0xbd8f806e	-0.07006918
129	0x3dea917b	0.114535294
130	0xbd21e2ad	-0.039522815
131	0x3dc2f140	0.09518671
132	0x3d990c41	0.0747304
133	0x3dc7fc2e	0.09764896
134	0xbcd35290	-0.025796205
135	0xbd2c54ef	-0.042073186
136	0xbe0d0d9f	-0.13774727
137	0x3d61afee	0.05509942
138	0x3e1309d7	0.14359222
139	0x3c89ff2e	0.016845312
140	0xbd83e0a5	-0.06439332
141	0x3e18e196	0.14929804
142	0xbdbb0330	-0.09131467
143	0x3e4e5001	0.20147707
144	0x3ddde4a3	0.108346246
145	0xbd7b5a5b	-0.061365467
146	0x3db2f878	0.08738798
147	0x3d8cd577	0.06876653
148	0xbd6df724	-0.05809702
149	0xbbadc323	-0.005302803
150	0x3cfe5be1	0.03104967
151	0x3d24202e	0.04006975
152	0x3d8fc35f	0.07019686
153	0x3d5a8ce8	0.053357035
154	0xbdfd5b58	-0.12370938
155	0x3df30de3	0.11867883
156	0x3c68c572	0.014207231
157	0x3e044dad	0.12920256
158	0xbc82597a	-0.015911806
159	0xbde28bc3	-0.11061814
160	0x3d72998f	0.059228476
161	0x3e00acb1	0.12565877
162	0xbe14a8b9	-0.14517488
163	0x3c44f7a6	0.012021935
164	0xbe618fd1	-0.22027518
165	0xbd0d69ef	-0.034524854
166	0xbc183be2	-0.009291621
167	0x3ca1e447	0.019762171
168	0xbe5289c7	-0.2056037
169	0x3d59ee94	0.05320604
170	0x3e53566b	0.20638435
171	0xbdd5fc07	-0.10448461
172	0x3de4fb46	0.11180739
173	0x3e322864	0.1739822
174	0x3de2910f	0.11062824
175	0x3d34fed0	0.04418832
176	0x3d1dbbc0	0.03850913
177	0xbd4cc0a7	-0.049988415
178	0x3dae8aef	0.08522593
179	0x3db32f52	0.0874926
180	0x3d945858	0.07243413
181	0xbccadaef	-0.024762599
182	0xbd5b941d	-0.05360805
183	0x3d8dbe73	0.06921091
184	0x3de20eb7	0.11037963
185	0xbd75b4f5	-0.059987027
186	0xbd21119c	-0.039323434
187	0xbba7f395	-0.005125473
188	0x3d5598fc	0.05214785
189	0xbd0e034e	-0.03467112
190	0x3dc4b550	0.09604895
191	0x3d456bf8	0.04819867
192	0x3bac0293	0.0052493303
193	0xbe4a6879	-0.19766416
194	0x3ced84af	0.028993933
195	0x3e14c9cc	0.14530104
196	0x3e3a4ec4	0.18194109
197	0x3d8628f5	0.06550781
198	0xbd3d22d4	-0.046175793
199	0xbc11b026	-0.008892095
200	0xbeb2bf33	-0.34911498
201	0x3db95827	0.09050017
202	0xbdb5d58d	-0.08878622
203	0x3db1ea5f	0.08687281
204	0xbcd1b567	-0.025599195
205	0x3d3343d6	0.043765865
206	0xbdf0dd4d	-0.1176096
207	0x3d8ab96e	0.06773649
208	0x3e389c19	0.18028297
209	0xbde15f6d	-0.11004529
210	0xbd594709	-0.05304626
211	0xbde79abe	-0.113088116
212	0x3d85f570	0.06540954
213	0xbde775e2	-0.11301781
214	0x3d653212	0.055955954
215	0x3e1b1a59	0.1514677
216	0x3d2e3b3b	0.042536955
217	0x3cbd1f27	0.023086144
218	0xbcd5c6d4	-0.026095785
219	0x3c6a30e8	0.014293887
220	0xbe558294	-0.20850593
221	0x3d28179a	0.041038133
222	0xbc198623	-0.00937036
223	0xbc884004	-0.016632088
224	0x3dd4d1f0	0.10391605
225	0xbd5184ce	-0.051152043
226	0xbd5343c9	-0.051578317
227	0x3e95a9be	0.29231066
228	0x3dc47bf9	0.095939584
229	0x3d945526	0.07242803
230	0x3ca35c87	0.019941581
231	0x3dd6c2bc	0.104863614
232	0x3dd02a73	0.101643465
233	0xbd81e13a	-0.06341787
234	0xbd837c1b	-0.064201556
235	0xbcbf7387	-0.023370517
236	0x3dde3ecd	0.10851822
237	0xbe20ad3f	-0.15691088
238	0xbd8262b2	-0.06366481
239	0x3d960b0f	0.07326328
240	0x3cf34809	0.029697435
241	0x3cbf8f99	0.023383902
242	0x3d838363	0.064215444
243	0x3db7428c	0.0894824
244	0x3d079cdb	0.033108573
245	0xbd632bb5	-0.055461604
246	0xbdceb791	-0.10093606
247	0xbd45b825	-0.048271317
248	0x3e2ae01c	0.16687053
249	0xbe187fc9	-0.14892496
250	0x3d6e8d60	0.058240294
251	0x3df811bb	0.12112757
252	0xbd17b449	-0.037037168
253	0xbd6d81ce	-0.05798512
254	0xbd187f83	-0.03723098
255	0xbdd8bb6b	-0.10582622

bias f4 [84]
0	0x3cd9a7d5	0.026569286
1	0x3d98bf55	0.07458369
2	0x3da78e65	0.081814565
3	0x3d3f7ea8	0.04675165
4	0xbd886d59	-0.066614814
5	0xba1d4722	-0.00059996743
6	0xbe07047e	-0.13185307
7	0x3bcab890	0.0061865523
8	0x3d0a1008	0.033706695
9	0x3de3aee1	0.1111734
10	0x3ba71e0b	0.005100017
11	0x3d877993	0.06614985
12	0x3e0497e7	0.12948571
13	0x3d02dc6a	0.031948484
14	0xbca8d0b8	-0.020607337
15	0xbd4f9aba	-0.050684668
16	0x3cf10b25	0.02942426
17	0xbdc4f79f	-0.096175425
18	0xbd8345c9	-0.06409795
19	0x3db97181	0.09054852
20	0x3de2ffb5	0.110839285
21	0xbde0277b	-0.1094503
22	0x3cf1c26c	0.029511653
23	0x3d6985fe	0.05701255
24	0x3d519917	0.05117139
25	0x3d89b03a	0.06723066
26	0xbd9cc7e6	-0.07655315
27	0xbd583cd1	-0.052792374
28	0x3ba34890	0.0049830154
29	0x3dd3cc48	0.10341698
30	0xbd9f6dbd	-0.07784603
31	0x3dd16f74	0.10226336
32	0xbbd3d215	-0.0064642527
33	0xbd6ff69a	-0.058584787
34	0x3e15b171	0.1461847
35	0x3c2e4496	0.010636469
36	0x3d454015	0.048156817
37	0x3d7296cf	0.059225854
38	0xbbac9397	-0.0052666175
39	0xbd949880	-0.072556496
40	0x3d9cc7b3	0.07655277
41	0x3e158d96	0.14604792
42	0xbdcf4c65	-0.10121993
43	0xbd3c1286	-0.045916103
44	0x3db3f16c	0.08786282
45	0x3d607be2	0.054805644
46	0x3d36ba80	0.044611454
47	0xbb839eb0	-0.0040167198
48	0xbde177d6	-0.11009185
49	0x3d801fbb	0.06256052
50	0xbce3fb00	-0.027829647
51	0x3d940f62	0.072294965
52	0x3e17c96b	0.14822929
53	0x3e0271db	0.12738745
54	0x3d967e94	0.073483616
55	0xbdc8ac27	-0.097984605
56	0xbda3e4b3	-0.08002605
57	0x3d24815e	0.040162437
58	0xbd8bce4c	-0.068264574
59	0xbd43a9a8	-0.04776922
60	0x3d1e7ec2	0.038695104
61	0x3dcd1cd7	0.100152664
62	0x3de3f303	0.11130335
63	0x3d815ace	0.06316148
64	0x3da0171a	0.07816906
65	0xbccf07e0	-0.02527231
66	0xbd93f911	-0.0722524
67	0xbc51b7cf	-0.012800171
68	0x3db7587f	0.08952426
69	0x3d270e67	0.04078522
70	0xbd108d88	-0.035291225
71	0x3d1d59f2	0.038415857
72	0x3cf9fad7	0.030515118
73	0x3dc2522a	0.09488328
74	0xbd02d30f	-0.031939562
75	0x3d9ce7cd	0.076614
76	0x3e1ab204	0.1510697
77	0x3dbbe209	0.09173972
78	0x3da650d3	0.08120885
79	0xbdd085a6	-0.101817414
80	0x3d3ecb60	0.046580672
81	0x3d7508e3	0.05982293
82	0x3d3e20a6	0.046417855
83	0x3d98928d	0.07449827

weight f4 [10, 84]
0	0xbe86b3ac	-0.26308954
1	0x3daf7876	0.08567898
2	0x3d44debe	0.048063986
3	0x3df90cfd	0.121606804
4	0xbe1864ba	-0.14882174
5	0xbd8aeec9	-0.06783826
6	0xbdee9ee5	-0.116514005
7	0xbe623fd3	-0.2209466
8	0x3e1c99f8	0.1529311
9	0xbe8bd99f	-0.2731447
10	0x3c9fe980	0.019520521
11	0xbdc6c955	-0.0970637
12	0xbea96044	-0.33081257
13	0xbd9d0bfe	-0.07668303
14	0xbe232e4d	-0.15935631
15	0xbe889146	-0.26673335
16	0xbe189574	-0.14900762
17	0xbe8628c7	-0.26202986
18	0x3e158f9b	0.14605562
19	0xbd80e717	-0.06294077
20	0xbea521b6	-0.32252282
21	0xbe76db33	-0.24107055
22	0xbe2446f4	-0.16042691
23	0xbd84f6c3	-0.064923786
24	0x3e45dfbc	0.19323629
25	0x3e531be7	0.20616113
26	0xbe2eb3ad	-0.17060728
27	0x3df7291a	0.120683864
28	0x3dca0903	0.09865
29	0x3dd9b903	0.10630991
30	0x3da8ca11	0.08241666
31	0x3e2841c6	0.1643134
32	0xbeb73f71	-0.3579059
33	0xbea1a5ab	-0.31571707
34	0x3c9d4d1d	0.01920181
35	0xbe8c5a0e	-0.27412456
36	0xbefda400	-0.49539185
37	0xbd558bb1	-0.052135173
38	0xbde40ad9	-0.111348815
39	0xbdbf621f	-0.09344887
40	0xbe8a8955	-0.270579
41	0xbdca9894	-0.09892383
42	0xbdc6aca2	-0.09700896
43	0xbd33e2cd	-0.043917466
44	0x3d4c7e03	0.04992486
45	0x3d291c8c	0.04128699
46	0xbe64b13b	-0.22333233
47	0xbe36ce90	-0.17852235
48	0x3dc5385a	0.09629889
49	0xbe99a408	-0.30007958
50	0xbd855def	-0.06512057
51	0xbd8fb76d	-0.070174076
52	0xbdfcad94	-0.12337795
53	0xbe591b13	-0.21201734
54	0x3d895f8b	0.067076765
55	0xbca31709	-0.019908445
56	0xbeb75a6a	-0.35811168
57	0x3dc7d9f2	0.09758367
58	0xbeb082e2	-0.34474856
59	0xbdb2e4aa	-0.087350205
60	0x3dc5a790	0.09651101
61	0xbecfca0a	-0.4058383
62	0x3d6d55fb	0.057943325
63	0x3e3a7541	0.18208791
64	0x3d9a38df	0.075303786
65	0xbecd378a	-0.40081435
66	0xbe643cc0	-0.222888
67	0x3e20afb8	0.15692031
68	0x3db2d9d9	0.087329574
69	0x3d913e9b	0.07092019
70	0xbe87d1cc	-0.2652725
71	0xbdbbe22c	-0.09173998
72	0xbed643dd	-0.4184865
73	0x3d905c28	0.070488274
74	0x3d5408da	0.051766254
75	0x3db94af9	0.09047503
76	0xbe37155f	-0.17879246
77	0x3ddb11a8	0.10696727
78	0xbd86c747	-0.06580978
79	0xbe9ca1fe	-0.3059234
80	0xbe9fb220	-0.31190586
81	0xbe2480fe	-0.16064832
82	0xbd68c75c	-0.05683075
83	0xbe296d58	-0.16545618
84	0x3e08867b	0.1333255
85	0xbde87e1b	-0.11352178
86	0xbe2f1a0c	-0.1709978
87	0xbe5af46b	-0.213823
88	0xbe46a5ae	-0.1939914
89	0xbd976838	-0.07392925
90	0x3c8bc226	0.01706035
91	0x3e008e1f	0.12554215
92	0xbd9f8355	-0.077887215
93	0x3dcbe020	0.09954858
94	0xbd567fe8	-0.052368075
95	0x3d17057c	0.036870465
96	0xbe365997	-0.17807613
97	0xbd986407	-0.07440954
98	0xbe6180fb	-0.22021858
99	0xbe9c5a37	-0.30537578
100	0xbd919cd5	-0.071099915
101	0xbd208972	-0.039193578
102	0x3dcddea2	0.100522295
103	0xbe755a8d	-0.23960324
104	0x3d4c458f	0.049871024
105	0xbe7f9e79	-0.24962796
106	0x3e6b95ba	0.23006335
107	0xbe09545e	-0.1341109
108	0xbd038a90	-0.032114565
109	0xbe34fd09	-0.1767465
110	0x3da67911	0.0812856
111	0x3b39e92a	0.0028367736
112	0xbe0c11f8	-0.1367873
113	0x3da24cb4	0.07924786
114	0xbca2b990	-0.019863874
115	0xbddf38ee	-0.1089953
116	0xbe6750f7	-0.2258948
117	0x3c870ec8	0.01648654
118	0x3d845099	0.06460685
119	0xbe792344	-0.24329859
120	0x3e043474	0.12910634
121	0xbea18896	-0.3154952
122	0xbca3725b	-0.01995199
123	0xbddd9fd6	-0.10821502
124	0x3e30b8f9	0.17258061
125	0xbec8b0bc	-0.39197338
126	0x3e14a77f	0.1451702
127	0x3d93d70b	0.072187506
128	0xbebc83b4	-0.36819232
129	0x3d843736	0.06455843
130	0x3e291a44	0.16513926
131	0xbe4934ad	-0.19649
132	0xbd75d186	-0.06001427
133	0x3d123b82	0.035701282
134	0xbdec9c5b	-0.1155326
135	0xbd11f06f	-0.035629686
136	0xbe6b5e2a	-0.2298514
137	0x3dce9c23	0.100883745
138	0x3b5287a7	0.0032124312
139	0xbdfc5cb4	-0.12322369
140	0xbe13c65d	-0.14431138
141	0xbea18871	-0.3154941
142	0x3e338ee5	0.17534979
143	0xbbe5169e	-0.0069912216
144	0xbeae496b	-0.34040388
145	0x3d9692d8	0.07352227
146	0x3ce98ffb	0.028511038
147	0x3e77255f	0.2413535
148	0x3e0c336b	0.1369149
149	0xbdd9638a	-0.10614689
150	0x3c4c7dd5	0.012481173
151	0x3e34a9bf	0.17642878
152	0xbe881e01	-0.2658539
153	0xbeaafa81	-0.33394244
154	0xbe9e0e2f	-0.30870196
155	0xbd62da54	-0.055383995
156	0xbe1a697b	-0.150793
157	0xbe92aa07	-0.28645346
158	0xbdfe3e78	-0.12414259
159	0x3d334627	0.043768074
160	0xbe982d28	-0.2972195
161	0xbe06e233	-0.13172226
162	0xbe8c00ee	-0.2734446
163	0xbe0ce434	-0.13758928
164	0xbc19d496	-0.009389063
165	0x3d8877ad	0.06663451
166	0xbdbf2f57	-0.09335201
167	0x3dcae719	0.0990736
168	0x3d6f695c	0.058450088
169	0xbdddade0	-0.1082418
170	0xbb04acf1	-0.0020244683
171	0x3e6fe314	0.23426467
172	0xbe0947db	-0.13406317
173	0xbe0b1a94	-0.13584358
174	0xbdb77cf3	-0.08959379
175	0x3d80787c	0.062729806
176	0xbd3593dc	-0.044330463
177	0xbecdd0d9	-0.401984
178	0x3d3c923c	0.046037897
179	0x3e0ff606	0.14058694
180	0xbe7b6c26	-0.24552974
181	0xbe8639d4	-0.26215994
182	0xbd8548cb	-0.06508025
183	0xbe07860e	-0.13234732
184	0xbda52bc2	-0.08064987
185	0x3e1760b6	0.14782986
186	0xbe47e191	-0.1951964
187	0x3d572139	0.052521918
188	0x3e00c891	0.1257651
189	0x3cfa2eb2	0.030539844
190	0xbdb2f4a9	-0.087380715
191	0xbe2eead3	-0.17081766
192	0x3dd2759f	0.10276341
193	0xbe3c27bc	-0.18374532
194	0xbe3ae3ea	-0.18251005
195	0x3dc0c876	0.09413235
196	0xbdbb7fbc	-0.09155223
197	0xbc714897	-0.014726779
198	0xbe87df3e	-0.26537508
199	0xbe9aaa47	-0.30208036
200	0x3d4b76c0	0.049673796
201	0xbdb5e454	-0.08881441
202	0x3de0efc6	0.10983233
203	0xbe3e9148	-0.18610108
204	0x3d84525e	0.06461023
205	0xbd87c688	-0.06629664
206	0x3dbf779e	0.09348987
207	0x3cbd5ada	0.02311461
208	0xbeb15178	-0.34632468
209	0x3e76dd7a	0.24107924
210	0xbe9bdc60	-0.3044157
211	0x3dbcdbcf	0.09221613
212	0xbee52fa2	-0.44762903
213	0xbe2b1f7a	-0.16711226
214	0xbe9e1f84	-0.3088342
215	0x3e531857	0.20614754
216	0x3c7e2e32	0.0155139435
217	0xbe0a45ea	-0.13503233
218	0x3dad54c1	0.08463431
219	0xbeb2919e	-0.34876722
220	0x3dc96416	0.09833543
221	0x3d90f7e8	0.07078534
222	0x3d4cf95a	0.050042488
223	0x3c024fd6	0.007953605
224	0xbe58ac8c	-0.21159571
225	0x3c013936	0.007887175
226	0x3db9f757	0.090803795
227	0x3d703e68	0.058653265
228	0x3c24c83d	0.010057506
229	0x3e2f549d	0.17122121
230	0xbd5d02e2	-0.053957827
231	0x3c8991c0	0.016793132
232	0x3df6e977	0.12056249
233	0xbe81cb87	-0.25350592
234	0xbc9a8c32	-0.018865678
235	0xbdbad211	-0.09122098
236	0xbe24f1ad	-0.16107817
237	0x3e27a5fc	0.16371912
238	0xbbc761dc	-0.006084664
239	0xbe8adcd6	-0.2712161
240	0x3d3b3fa5	0.045714993
241	0x3e09650f	0.13417457
242	0x3e25e75b	0.16201536
243	0xbe94fa76	-0.29097337
244	0x3d92d065	0.07168654
245	0x3d4bcbe0	0.049754977
246	0xbe04b835	-0.12960894
247	0xbe37755e	-0.17915866
248	0xbe6c65f1	-0.23085763
249	0xbe574a1b	-0.21024363
250	0x3d14fdf8	0.036375016
251	0x3d2dcad0	0.042429745
252	0xbc08f2bd	-0.008358655
253	0xbe27a43e	-0.16371247
254	0x3d6b7e02	0.057493217
255	0xbdf699a3	-0.12041023

bias f4 [10]
0	0xbd50f72d	-0.051016975
1	0xbd90dbb8	-0.07073158
2	0x3daab4bb	0.08335253
3	0x3d70b20f	0.05876356
4	0xbda7d5ca	-0.08195074
5	0x3dcccd7b	0.1000013
6	0xbd64e16d	-0.055879045
7	0xbb296fab	-0.0025853913
8	0x3e025434	0.12727433
9	0x3db10ebb	0.08645388
